_________________________________________________________________
Layer (type)                 Output Shape              Param #   
=================================================================
conv2d_1 (Conv2D)            (None, 32, 128, 128)      832       
_________________________________________________________________
activation_1 (Activation)    (None, 32, 128, 128)      0         
_________________________________________________________________
max_pooling2d_1 (MaxPooling2 (None, 16, 64, 128)       0         
_________________________________________________________________
conv2d_2 (Conv2D)            (None, 16, 64, 64)        204864    
_________________________________________________________________
activation_2 (Activation)    (None, 16, 64, 64)        0         
_________________________________________________________________
max_pooling2d_2 (MaxPooling2 (None, 8, 32, 64)         0         
_________________________________________________________________
flatten_1 (Flatten)          (None, 16384)             0         
_________________________________________________________________
dense_1 (Dense)              (None, 512)               8389120   
_________________________________________________________________
activation_3 (Activation)    (None, 512)               0         
_________________________________________________________________
dense_2 (Dense)              (None, 8)                 4104      
_________________________________________________________________
activation_4 (Activation)    (None, 8)                 0         
=================================================================
Total params: 8,598,920
Trainable params: 8,598,920
Non-trainable params: 0
_________________________________________________________________
Epoch 1/30

20/32 [=================>............] - ETA: 1s - loss: 2.0674 - acc: 0.0500
32/32 [==============================] - 3s 89ms/step - loss: 2.4308 - acc: 0.0625
Epoch 2/30
…
